Assets/RollerBall.onnx (onnx, 73485 bytes, 7 tensors)

network_body._body_endoder.seq_layers.0.weight f4 [128, 8]
000000 d0 fc ce be 76 66 1d bf 45 eb 11 3d 46 85 ae 3e
       -0.40427256 -0.6148447 0.03562476 0.34086055
000010 0f 26 4c be e3 a7 0c 3f 71 2e 91 be 79 04 72 3e
       -0.19936393 0.54943675 -0.28355744 0.23634519
000020 6d 21 33 be cd ef f6 3e ad e8 0f bf 24 65 96 be
       -0.1749322 0.48229828 -0.5621441 -0.2937404
000030 e6 52 6d 3e b1 4c ce bd 86 18 80 3e ea 6d 2b be
       0.23176154 -0.100732215 0.2501871 -0.16741148
000040 44 03 30 3f ae 2d e4 be cd 2f 67 bd e5 c9 81 be
       0.6875498 -0.445661 -0.05644207 -0.25349346
000050 10 59 98 3e bc 9c 01 bd be 52 80 3e 6d 4c 40 bd
       0.2975545 -0.031643614 0.25063127 -0.046947885
000060 3f 0f 83 3e 23 95 70 be 0e 1c 80 be 48 b5 1a bf
       0.2559757 -0.23494391 -0.25021404 -0.60432863
000070 31 e5 92 be ca 5a af bd 4b be d7 be 32 7c 16 3f
       -0.28690484 -0.085622385 -0.4213737 0.58783257
000080 29 68 12 bd 47 7d 2d 3f 52 af db be b1 ea d5 3d
       -0.035743866 0.67769283 -0.42907196 0.104451545
000090 bd fb d2 3d b6 0d 8a 3e ff 9b 2b 3e ce 0b ad be
       0.103019215 0.26963586 0.16758727 -0.3379807
0000a0 21 07 8a 3d 2b d6 29 be 1f b1 31 be 84 38 88 3d
       0.06739641 -0.16585605 -0.17352723 0.066514045
0000b0 95 85 51 be c1 a8 06 be 33 11 8e bd ce dc 1b be
       -0.20461114 -0.13150312 -0.06936874 -0.15220949
0000c0 30 ec 0e bf 03 01 e1 3e 94 97 9f be d9 3d eb be
       -0.55829144 0.43946084 -0.31170332 -0.45945624
0000d0 cc ba 46 3e ab 41 c1 be 0f a4 61 3e d4 04 65 be
       0.19407195 -0.37745413 0.2203524 -0.22365123
0000e0 dc 53 02 bf c4 c1 97 be f2 4a 31 bd c7 0b 35 3f
       -0.5090921 -0.2964002 -0.043284364 0.70721096
0000f0 26 fe 07 bd a1 48 8c be 50 c8 b2 be 1a 9d a6 be
       -0.03320136 -0.2739916 -0.3491845 -0.32541734
000100 47 65 83 be b3 e2 8e 3e e8 4f e2 3e dc 31 ad 3d
       -0.25663206 0.27907333 0.4420159 0.084567755
000110 d0 71 35 3e e0 13 b4 3d c5 76 78 bc b2 93 fa be
       0.17719197 0.08792853 -0.015165036 -0.48940808
000120 58 ef 62 be ac 1a bf be 80 6f 33 bf 02 c3 73 be
       -0.22161615 -0.37325037 -0.7009201 -0.23804858
000130 7c ec f6 bd b3 a7 ec 3e 31 b7 23 bf b0 a8 90 3e
       -0.120568246 0.46221694 -0.639514 0.28253698
000140 1d f4 bf 3d b9 5a 74 be 8f f2 ce 3e 38 6b 84 bd
       0.09372733 -0.23862733 0.40419433 -0.06465763
000150 9c 16 ee 3c ce 12 55 3e b6 ce 1f 3f 8a ac f0 3e
       0.029063515 0.20807955 0.6242479 0.47006637
000160 96 e1 f9 bd 07 2a 70 be ec 92 05 be 6e f7 59 be
       -0.1220123 -0.23453532 -0.13044327 -0.21285793
000170 8a bd 1b 3f b8 19 47 bd 03 48 d1 bd 75 f7 d3 bd
       0.6083609 -0.04860851 -0.10218813 -0.10349933
000180 9c 61 00 bf 3b 3d 0b be d7 f3 24 3c 9c 02 1f bf
       -0.5014894 -0.13597576 0.010067902 -0.62113357
000190 10 10 d3 3e 6f 1c 18 3e 95 8c 9b be 44 08 23 3e
       0.41223192 0.14854597 -0.30380693 0.15921122
0001a0 14 63 0f 3f cf 72 af 3e 6d 22 0b 3d eb 06 5e be
       0.56010556 0.3426728 0.033968378 -0.21682326
0001b0 e8 bc 13 be 27 bd d5 3d a0 08 4b bf ac 54 ba 3d
       -0.14427531 0.104364686 -0.79310036 0.09098181
0001c0 b3 7f 46 3e 96 89 a9 bc 1e 0a 57 3b 2b e3 a5 bd
       0.19384651 -0.020695489 0.0032812427 -0.080999695
0001d0 28 31 d5 3e 5e ed 7a be 9c e5 36 bf 9e fc 62 be
       0.41639066 -0.24504611 -0.71444106 -0.22166678
0001e0 f8 8c 23 3e 4b be 4a 3e 15 87 15 3d 79 5b 88 3e
       0.15971744 0.19799154 0.036505777 0.26632288
0001f0 7c ed 83 be 31 a1 c7 3e 64 03 54 bd 40 c1 5d bd
       -0.25767124 0.38990167 -0.051761046 -0.054139376
000200 04 bc d9 be 4a 31 14 be 5d cd 92 3e 35 bd b7 bd
       -0.42526257 -0.14471927 0.28672305 -0.08971635
000210 1a 87 8a 3e 03 02 59 be a2 87 09 3c 46 e4 08 bf
       0.270562 -0.21192174 0.008394154 -0.5347332
000220 59 db 1a 3f b5 be 19 be 89 53 71 3e 64 91 a7 3e
       0.6049095 -0.15014155 0.23567022 0.32728112
000230 89 51 6c bf 07 95 0a 3d 5d e0 2d bf cc 6b d5 be
       -0.9231191 0.03383353 -0.67920476 -0.41683805
000240 25 c6 62 be 79 aa f7 bd 32 4e 31 3f b0 83 d5 3e
       -0.22145899 -0.12093062 0.6925994 0.41702032
000250 2f 1e a3 be a1 19 75 3c a4 d5 3a 3f 6b 30 c1 3d
       -0.31858966 0.014959724 0.7298224 0.09433063
000260 2b 5c 36 3e a4 44 05 3f a0 cb 6c be 3a e0 af be
       0.17808597 0.5205786 -0.23124552 -0.3435076
000270 c5 31 0f 3e f0 d3 28 be 05 fa 2e 3d e6 af 35 bd
       0.1398383 -0.16487098 0.042718906 -0.044357203
000280 00 87 81 be 8d c5 84 3d a1 44 78 3d ad 04 ba 3e
       -0.2529831 0.06482992 0.060612325 0.36331692
000290 a5 9a 8d be 85 a2 0a 3d da 51 3c bc 15 03 28 bf
       -0.27657047 0.033846397 -0.011494124 -0.656297
0002a0 a6 4d c3 be 3c 0f e0 be 80 8e 8c 3e a1 15 cd 3e
       -0.3814518 -0.43761623 0.2745247 0.40055564
0002b0 08 e3 92 3d af 4f 8c bd 37 f4 42 be 02 9a 3c 3e
       0.07172209 -0.06851136 -0.19038473 0.18418124
0002c0 65 7b e9 be 23 c2 82 3d 83 37 12 bf b8 d3 47 3e
       -0.45601955 0.06384685 -0.57115954 0.19514358
0002d0 e3 d3 0d bf 2c 90 3a 3f e2 6f 1c be 64 a1 19 3e
       -0.5540144 0.7287624 -0.15277055 0.15002972
0002e0 71 c9 ce bd 8f 08 b8 3d c0 3b d3 be b5 e4 0a bf
       -0.10097016 0.089860074 -0.41256523 -0.5425523
0002f0 f6 56 42 be 43 1f 8d 3d 70 ab 3e 3e 6a ea ca bd
       -0.18978485 0.06890728 0.18620086 -0.09907992
000300 d8 b6 05 be 6d c3 9a 3e 1c eb f7 3e a4 1d 86 bd
       -0.1305803 0.30227223 0.48421562 -0.06548622
000310 0a 28 1a 3e f0 9b 27 3f 24 b7 9c 3d cc b4 a3 3b
       0.15054336 0.65472317 0.07652119 0.004995918
000320 99 c2 ac 3e b0 54 c1 bc 45 3b f0 bd fe 39 1e 3f
       0.33742216 -0.023599952 -0.11730055 0.6180724
000330 6f c6 3b be 22 bd 0b bf 86 93 a4 3e b6 08 04 bf
       -0.18337415 -0.5458547 0.321438 -0.5157579
000340 f4 fb c3 bd a3 d4 2c 3e 58 f8 ef 3d a5 cd 05 3c
       -0.095695406 0.1687799 0.1171729 0.008166705
000350 44 3a 4a bf fb 91 20 3f 80 03 f4 be 48 8b 17 3e
       -0.78995156 0.6272275 -0.4765892 0.14799225
000360 95 9d 05 be 6f 25 f9 3e 9f 93 45 bf 7c b4 30 3e
       -0.13048394 0.48661372 -0.77178377 0.1725635
000370 90 fb 39 3e 75 95 01 3f 81 31 f9 ba 8f 98 85 bd
       0.1816237 0.5061868 -0.0019011946 -0.06523239
000380 72 d3 cb 3e 90 52 05 3f e5 51 35 3f 25 13 76 3f
       0.39809757 0.52079105 0.70828086 0.9612296
000390 4a 66 d3 bd 79 21 a8 be 08 83 7e bc 35 b7 02 3d
       -0.103222445 -0.32838038 -0.01553417 0.031913
0003a0 3f 92 c2 3e 9b 46 ee be d5 6e 9d bd 05 18 9b be
       0.38002202 -0.46538243 -0.07687155 -0.30291763
0003b0 08 4b 3c bd 5f 8a 03 3f 54 c6 07 bf 4b 35 10 bf
       -0.045969993 0.5138301 -0.53037 -0.5633132
0003c0 bb 1d 3f 3f 77 fe 09 3e 3e c2 9a be 08 8b 0f bd
       0.7465474 0.13475977 -0.3022632 -0.0350447
0003d0 3e 06 6f 3d d6 63 44 bf 2a 7f 9a 3e 58 ad e9 bd
       0.058355562 -0.7671484 0.30175143 -0.11410016
0003e0 ab 70 0f 3f 6a 60 de be ea 0e 3c 3e a6 bb 85 be
       0.5603129 -0.43432933 0.18365064 -0.26119727
0003f0 51 6a f1 3e d2 5f 60 3e 60 dd 65 3e ac 69 a4 be
       0.47151425 0.21911553 0.22447729 -0.3211187

network_body._body_endoder.seq_layers.0.bias f4 [128]
000000 78 39 3e bc 9c b6 11 3d b2 64 0b 3d 28 9b e3 3d
       -0.011610381 0.03557454 0.034031577 0.11113578
000010 b2 8f 30 3d a0 08 79 3c 2e ea d7 bb af d2 39 3d
       0.04310579 0.01519981 -0.0065891957 0.04536694
000020 46 5f 17 3d 95 4f 8f 3c 6b d8 28 bc 9e a5 37 3b
       0.036956094 0.017494002 -0.010305504 0.00280223
000030 0f 01 8d bc 29 ea 44 3d a0 c8 f0 3b d7 dc 5d bb
       -0.017212419 0.048074875 0.007348135 -0.0033853555
000040 08 5d a4 3d c5 d5 0c 3b 46 b1 ab bb 01 f2 0d 3d
       0.08025557 0.0021489721 -0.0052396385 0.03465462
000050 a0 c2 e5 3c ba 50 0d bd 7d 89 a6 3c 7a 39 68 3c
       0.028046906 -0.034500815 0.020329231 0.01417386
000060 95 06 2f bd ed 33 6e 3c ea 50 33 3c e9 c9 98 3d
       -0.042730886 0.014538747 0.010944584 0.07460386
000070 17 66 7c 3c b2 7f 56 3d c1 6b 80 b9 42 c4 13 3d
       0.0154051995 0.052367873 -0.00024494345 0.036075838
000080 7f 3e 53 3d b4 d3 41 3c e0 1b 1a 3d b2 b5 2b 3d
       0.051573273 0.011830259 0.03762424 0.041921325
000090 55 a8 a0 3c 35 31 a6 bc 7f 35 1c 3d 6d 11 09 3d
       0.019611517 -0.020287136 0.038136955 0.033463884
0000a0 23 91 58 3c fd d6 88 3c c5 e9 48 bc 12 81 20 3c
       0.013218197 0.016704077 -0.012262766 0.009796398
0000b0 f6 6e b0 3d 42 e4 48 3c c1 bc b6 bc 21 4e 1b 3d
       0.08614914 0.012261452 -0.022306802 0.037916306
0000c0 7d b9 d3 bc ed 0a be 3c 0e 9e 04 3c 80 15 8d bb
       -0.025845284 0.02319857 0.008094324 -0.0043055415
0000d0 78 03 b2 3b 50 2d 15 3d 61 67 22 3d f5 84 94 ba
       0.0054325424 0.036420166 0.03964937 -0.0011331128
0000e0 64 8a 41 3d 73 5e 77 3d ca 0e d0 3c e1 65 44 3c
       0.04725112 0.06039281 0.025397677 0.01198718
0000f0 86 63 23 3d 85 c9 f7 b9 58 cd 3a 3c 30 d0 ff 3c
       0.039889835 -0.00047261655 0.011401497 0.031227201
000100 27 6b 73 3d 9a de 00 3d aa 84 35 bc f3 52 f7 3c
       0.05942836 0.03146229 -0.011078993 0.03019092
000110 9c 14 f1 3d d7 e1 66 3c d9 2b 03 3d 0d 42 6a 3c
       0.11771509 0.01409193 0.03202424 0.014297974
000120 aa 27 80 3c 3a 53 18 bc 93 a1 c7 3c 7b 67 77 3d
       0.015643913 -0.0092971865 0.024369037 0.06040142
000130 d1 4b f8 bc 00 90 26 3d db 36 6a 3d 01 cd 98 3c
       -0.03030959 0.040664673 0.05718122 0.018652441
000140 36 4d d5 3c fb 76 8d bc 6e 31 b3 bc 64 1f d5 bc
       0.026037794 -0.017268648 -0.021874156 -0.026015945
000150 79 41 5c 3c e9 82 91 3d 8c df c8 ba 3c ba 86 3c
       0.013443344 0.07105047 -0.0015325411 0.016446225
000160 a8 ee 94 3a 6d 15 3e 3b f6 6b 4b 3d 69 52 f6 3c
       0.0011362629 0.002900447 0.049663506 0.030068593
000170 9d d0 1f 3d 94 22 1a 3d c3 f5 94 3c f7 c4 c5 3b
       0.03901731 0.037630633 0.018183595 0.006035443
000180 60 5d c1 3b d5 a2 1b 3d 43 45 41 3c a2 e3 a4 bc
       0.0059010237 0.037997086 0.011796298 -0.020128075
000190 e5 4d aa bd 23 40 d2 3c b5 46 e3 3b ac 2c a0 3d
       -0.083156385 0.025665348 0.006935919 0.078210205
0001a0 35 63 9c 3c c2 73 a1 3b 9d ba 2e 3d 3d 1d 28 3d
       0.019090274 0.0049271295 0.042658437 0.04104351
0001b0 14 86 8d 3d 7c 20 bc 3c c4 0d d9 bc 46 6e c6 bc
       0.06910339 0.022964709 -0.026495822 -0.024222504
0001c0 3c c0 84 3d 79 22 a3 3d 85 5a 40 bd b6 7a 4d 3d
       0.06481978 0.079655595 -0.046961326 0.050165854
0001d0 2c c5 8f 3d 7c b6 c8 b9 f7 30 7c 3a 28 62 07 3d
       0.070200294 -0.00038282934 0.00096203334 0.033052593
0001e0 d8 02 48 3d f2 37 55 3b 35 63 65 bc 86 55 7d 3c
       0.048830837 0.0032534567 -0.014000704 0.015462285
0001f0 45 de f9 bc e3 91 22 bc 68 ac 0b 3c 18 b9 81 bc
       -0.030501494 -0.009922477 0.008524992 -0.01583533

network_body._body_endoder.seq_layers.2.weight f4 [128, 128]
000000 7d 0d c4 bd b9 4c a7 3d 3f 09 06 bd 8c c5 49 3e
       -0.09572885 0.081689306 -0.03272366 0.19704264
000010 2c 92 c3 bd de 41 ab bb fe d5 51 3d 51 54 d2 bd
       -0.095493644 -0.005226358 0.05122947 -0.10269988
000020 06 1e 0c bd a8 08 6a bd 54 d9 bc 3d 78 e7 d6 bd
       -0.03420832 -0.05713716 0.092211396 -0.10493368
000030 a5 75 da 3c 7e 50 ba 3d 75 68 d3 bd 10 3d 90 bd
       0.026667425 0.09097384 -0.10322658 -0.07042897
000040 10 34 17 3d 99 53 f9 bd 20 fe a7 3d 94 1f 21 bc
       0.036914885 -0.12174148 0.08202767 -0.009834189
000050 af 4e 8f 3c 87 39 2e 3d b3 fa 58 3c d7 b3 01 3d
       0.017493574 0.04253533 0.013243365 0.03166565
000060 07 7d 07 3e fc 8d c8 3d a9 0e f6 bd 28 08 30 3c
       0.13231288 0.09792706 -0.12014515 0.010744132
000070 2b 73 41 3c 01 a9 c1 3d 03 57 86 3d e9 28 c3 3d
       0.011807243 0.09456063 0.06559565 0.09529287
000080 7e 4a 84 bd 1b cd cb bd e9 c3 0a 3d b6 bf 85 3d
       -0.06459521 -0.0995123 0.03387824 0.065307066
000090 72 60 df bd 7a 0b 29 bd c6 dc ac bd d8 fb 81 bc
       -0.10907067 -0.04127071 -0.08440547 -0.015867159
0000a0 5e 50 31 be 94 ff 2b 3e de 79 d9 bd 92 6b be bd
       -0.17315814 0.16796714 -0.106189474 -0.09297861
0000b0 cc fc 6a bd d5 f7 31 3e cc 15 6b 3d 60 f0 b5 3d
       -0.057369992 0.17379697 0.057393834 0.088837385
0000c0 22 48 96 bd 5e 02 f6 3c 53 be 54 bd 40 54 3a 3d
       -0.07337977 0.030030426 -0.05193932 0.045490503
0000d0 e1 83 43 bd 10 94 da 3d 9a ba 37 be 81 0e 00 3e
       -0.04773319 0.10672772 -0.17942277 0.12505533
0000e0 54 dd ec bc 33 31 a1 3d 06 ca 28 3c 66 97 0e 3e
       -0.028914131 0.07870712 0.010302072 0.13924941
0000f0 0b d0 ac 3d 3e 0e e6 3d 0d 9b 8a bd ad 81 01 3e
       0.084381185 0.11233185 -0.06767855 0.12647124
000100 a3 75 cd 3c 57 ab ad 3d 05 44 88 bd 1d 06 07 bd
       0.025080508 0.08479946 -0.06653599 -0.032964814
000110 0f 2e 08 3e 2d a0 08 3e 63 d8 29 3d 5c 08 87 3d
       0.1329882 0.13342352 0.041466128 0.06593391
000120 df 8d 85 3d 37 b2 8a bd c0 9c 98 3c 56 bf 84 3d
       0.065212004 -0.06772273 0.018629432 0.06481807
000130 86 6b 9d 3d a5 0b 84 bd 63 72 94 3d a2 19 7a bd
       0.07686524 -0.064475335 0.0724838 -0.0610596
000140 b7 19 54 3d 6e 63 21 be aa 70 63 bc 93 1f 87 3d
       0.051782336 -0.15760586 -0.013881842 0.06597819
000150 8c b2 15 be 01 6f 04 be 8d a1 07 bd 9c ce 26 be
       -0.14618891 -0.1293297 -0.03311305 -0.16289753
000160 dc af 43 3d 11 f0 22 3e 07 a5 f5 bc 3b 2d c0 3d
       0.047775134 0.1591189 -0.029985918 0.09383627
000170 74 94 01 be f3 09 b8 bd c1 55 56 bd 4f c4 1f 3e
       -0.12654287 -0.08986273 -0.052327875 0.1560223
000180 2d 93 17 3e bf f3 ec bc 82 36 71 3d 5c 4c ef 3d
       0.14802237 -0.028924821 0.058889873 0.11684486
000190 e9 17 d1 3d 31 17 bb 3c af b3 07 3e 9d fc a8 3d
       0.102096386 0.022838207 0.13252138 0.08251307
0001a0 2c 2b 09 be a3 6b 7f ba 3e 31 2b 3d ad 39 37 3d
       -0.13395375 -0.0009743517 0.041795008 0.04473274
0001b0 e5 b1 33 bd 99 44 e3 3c 65 71 6f 3d 96 18 a6 bb
       -0.043870825 0.02774267 0.05845775 -0.005068849
0001c0 81 14 96 3d 54 7a a7 bb 09 e4 29 3d b7 dc 9d 3d
       0.073281296 -0.005111018 0.041477237 0.07708114
0001d0 57 70 94 3d b3 cb b8 bc 84 65 7c 3d bb fe eb bd
       0.072479896 -0.022558069 0.06162025 -0.11523195
0001e0 cb ce a6 bd 9b 63 04 3e c2 cd 5f be 74 11 8f bb
       -0.081449114 0.12928621 -0.21855834 -0.0043660942
0001f0 37 29 0f 3e 6f c3 f4 bd b6 a1 21 bd 5a 38 0f bd
       0.13980566 -0.119513385 -0.03946086 -0.03496585
000200 e3 c9 a4 bd 45 a9 b6 3d 32 a3 90 3d 1d f5 25 be
       -0.08046319 0.08919004 0.07062377 -0.16206785
000210 75 c6 9d bc 72 42 79 3d 83 58 63 3d 0c 16 90 bd
       -0.01925967 0.060854383 0.055504333 -0.07035455
000220 af 45 8c 3d 24 0d 28 3e 56 68 a6 3c f4 e6 a7 3d
       0.068492286 0.16411263 0.020313423 0.08198348
000230 f0 bb 9c 3d 17 fe 16 bc 4d 27 4b bd 22 9e 75 bd
       0.07653034 -0.009215853 -0.049598027 -0.05996526
000240 c6 13 71 bd 93 11 09 be 2d 3a d6 bd c2 3b 41 3e
       -0.058856748 -0.1338561 -0.10460315 0.18870452
000250 95 0a 9f 3d df f0 96 bd ae f2 02 3e 39 43 44 3d
       0.0776569 -0.07370161 0.12787887 0.04791567
000260 af fc 45 3c 31 81 a3 3d 42 af 2a bd aa 41 51 3d
       0.01208417 0.07983626 -0.041671045 0.051088013
000270 a3 58 62 bd 64 72 b1 bc d4 bb 1e bd f4 b6 06 be
       -0.05526031 -0.021660991 -0.038753346 -0.13155729
000280 60 0e 13 3e d7 8e ca 3d c8 83 02 be f4 21 d6 bc
       0.14360952 0.09890526 -0.12745583 -0.026139237
000290 c8 20 36 bd 40 c5 88 bd b3 b5 ea 3d 1d 2a 0c 3e
       -0.044464856 -0.066782475 0.114604376 0.1368794
0002a0 b0 48 7a bc 09 51 80 3d d1 7a be bc c0 b4 16 be
       -0.015276119 0.06265456 -0.023251923 -0.14717388
0002b0 e4 2f 76 3d 41 40 0e be f7 00 b6 bd 76 19 85 bd
       0.060104266 -0.13891698 -0.08886903 -0.06498997
0002c0 d7 6b 5c bc 1b 61 56 be 13 2e b1 3a d2 f6 dd 3c
       -0.013453445 -0.2093548 0.001351776 0.027095232
0002d0 3d 9e 95 bd 4a d2 6b bd 5a 29 cc 3d 9a 41 c7 3c
       -0.07305572 -0.057573594 0.09968825 0.024323273
0002e0 63 eb 53 bd 5f d5 03 be a4 a2 e8 bd aa 5c a0 3d
       -0.051738154 -0.12874363 -0.11359146 0.07830174
0002f0 04 a5 5b bd 5e 4f 75 ba 17 2d a8 3c 12 be 5e be
       -0.053624168 -0.0009357835 0.020529313 -0.21752194
000300 60 7b 93 3d 1d 29 93 bd ca 87 89 bd e3 75 30 3e
       0.07201266 -0.07185576 -0.06715353 0.1723247
000310 77 f2 72 3d a8 06 26 bd b3 20 c8 3b 09 16 04 3e
       0.059313264 -0.04053369 0.0061074137 0.1289903
000320 1c 46 0d b9 66 8b 00 3e 4c 68 15 bd 96 89 81 3c
       -0.00013472926 0.12553176 -0.03647642 0.015812676
000330 64 d0 89 3d af 17 67 3d d1 c4 ba bd 0a 83 32 3d
       0.067292005 0.05641907 -0.09119571 0.043582
000340 43 8c 21 bd 61 76 d9 3d ff c0 cd 3d 40 3e 19 3d
       -0.039440405 0.10618282 0.10046577 0.03741288
000350 e7 b0 98 3d 38 a8 71 3e f1 22 da bd 09 f0 27 be
       0.074556164 0.23599327 -0.10651196 -0.1640016
000360 5a 84 a6 3d c2 74 39 3d 3f 0f 6c 3d 70 d5 4a 3d
       0.08130713 0.045277365 0.057631727 0.049519956
000370 97 9a 2f 3c 5a cf 6d be 1a 09 f9 bd 5b 1b a8 3c
       0.010718009 -0.2322363 -0.12159939 0.020520857
000380 1a 2c ab bd a3 e1 2c 3d d7 b7 ca 3b 20 73 7b be
       -0.08358021 0.04220737 0.006186466 -0.24555635
000390 a8 4d 21 3e 24 c0 c3 3d 65 3e 27 3e a9 c2 2f 3e
       0.1575228 0.09558132 0.16332395 0.171641
0003a0 9f 00 03 be 3b 01 4c bc 6b 6e 5b bd a2 e3 a3 3c
       -0.12793206 -0.012451465 -0.0535721 0.020006005
0003b0 84 7b 08 3d 54 2d e3 3c 13 f9 09 bc a6 c7 82 3c
       0.03332092 0.027731575 -0.0084212 0.01596434
0003c0 61 56 2a bc 2c 11 91 bd c6 a9 01 3e f4 be 3b 3d
       -0.010396571 -0.070833534 0.1266242 0.045836404
0003d0 c0 7a 89 bd 03 8d 51 be 1c 87 ea bc 54 bb 34 3e
       -0.06712866 -0.20463948 -0.028628878 0.17649585
0003e0 33 b6 2e 3e 32 7a f3 bd 71 7e a8 3d 76 c3 ad bd
       0.17061691 -0.11888541 0.08227242 -0.08484547
0003f0 8e 1a 59 bd ae 64 82 3d 98 a6 81 3d 94 d9 33 be
       -0.05300384 0.063668594 0.06330603 -0.17563468

network_body._body_endoder.seq_layers.2.bias f4 [128]
000000 a1 48 67 3d f5 09 31 3d 29 d6 7d 3c 9b 29 90 3d
       0.05646575 0.043222386 0.015492954 0.070391856
000010 47 e2 5e 3c 0b f5 34 3b 5f 5f 78 3a 74 63 af 3c
       0.013603753 0.0027611877 0.00094746606 0.021409728
000020 1a 3a d5 3c e9 5c 15 3d b7 da 75 bc de e1 77 3d
       0.026028682 0.03646556 -0.015005759 0.060518138
000030 8d b0 24 3c 38 7b f3 bc 3d 07 1a 3d 1d c6 31 3d
       0.010051859 -0.029721841 0.03760456 0.043401826
000040 87 6c 75 bc 9a af 53 3c 3a ff 09 3c 87 54 6f 3c
       -0.014979488 0.012920285 0.008422667 0.014607555
000050 50 fb 3d 3d 1a 53 86 3c 21 5b 99 3c 00 7c 9e 3d
       0.04638225 0.016397048 0.018720211 0.07738495
000060 33 8e 37 3c 01 ad 98 bb f9 d6 b5 3c 2d 61 2b 3d
       0.0112033365 -0.0046592955 0.022197234 0.04184072
000070 48 71 46 3d 42 34 fe 3c fd 63 25 3d 33 41 16 3d
       0.048447877 0.031030778 0.04037856 0.036683273
000080 e6 1f 46 3c 5f 3c f2 3c a9 4a ca 3c cf de 21 3d
       0.012092566 0.029569803 0.024693804 0.039519127
000090 d9 48 31 3d 13 aa 0b bd c2 88 c4 3c e5 9e 64 3c
       0.043282364 -0.034097742 0.023990992 0.013953899
0000a0 31 06 05 3d c1 cd 04 3d 35 56 34 3c d3 05 a7 3c
       0.032476608 0.032422785 0.0110068815 0.02038852
0000b0 28 f1 14 bd be e5 75 3d 84 83 63 3c 58 ac 58 3d
       -0.036362797 0.060033552 0.013886336 0.052898735
0000c0 c6 0f a2 3b 5d 2e 57 3c 47 f5 36 3d 1a 6a 5c 3d
       0.004945728 0.013133612 0.04466751 0.053812124
0000d0 0a 55 64 3c 96 c7 76 3c c6 9a 2d 3c 36 5d de 3b
       0.0139362905 0.015062233 0.010595983 0.006786014
0000e0 55 42 b2 3c 31 22 50 3d df ed a6 3c 3e 8a 12 3d
       0.021760145 0.050813857 0.020377098 0.03577637
0000f0 fd 15 20 3d 40 54 a9 3c ea 2e 87 3c 75 53 b3 3d
       0.03908347 0.020670056 0.016501863 0.087561525
000100 33 6d 26 3d 41 af 8f 3d 03 f1 4b 3b 14 27 4f 3d
       0.040631484 0.07015849 0.0031118996 0.050574377
000110 b1 71 99 3c 5c 94 11 3d 59 82 95 3b 3f ae 8a 3d
       0.01873097 0.035541877 0.004562658 0.06771516
000120 78 11 85 3d 6b 4f 9a 3c be 6d 79 3d 02 4a 0d 3c
       0.064974725 0.018836698 0.060895674 0.008623602
000130 91 49 46 bc 37 31 b1 3c 3d 73 23 3d 75 14 a3 3c
       -0.012102501 0.021629913 0.03990482 0.019907216
000140 7f 12 db 3c ad 48 1a 3c eb 58 f9 3b 26 6c e0 3b
       0.026742218 0.009416741 0.007609477 0.00684883
000150 5e 69 38 3d f8 55 60 3c bd 5d 1c 3d 87 d0 57 3d
       0.04502236 0.013692372 0.038175333 0.0526891
000160 3e d4 88 3d 8c 4a 3a 3d a4 30 8c bc 31 29 3b 3d
       0.06681107 0.04548125 -0.017113037 0.04569358
000170 33 15 3c 3c fd bf c4 3b 3c 79 c1 bb 52 bc 8f bc
       0.011479664 0.006004332 -0.005904345 -0.017545853
000180 b7 53 4f 3d f3 1a a5 3c 1c e6 0f 3d c5 22 e7 3c
       0.050616946 0.020154452 0.03513156 0.028214822
000190 da 96 09 3d e2 c6 87 3c ae ee ae 3c 56 70 1a 3c
       0.03359113 0.016574327 0.021354046 0.009426197
0001a0 fa 62 10 ba 12 74 f3 3c 6a ef 35 3d 90 fc 5d 3d
       -0.0005507913 0.029718433 0.044417776 0.05419594
0001b0 ed 9d f7 3b fa f0 7b bc d5 a7 b1 3c e9 f7 18 3d
       0.007556668 -0.0153772775 0.021686474 0.0373458
0001c0 96 1d d7 3c d2 86 0a 3d 54 e1 41 3d fb 02 14 3d
       0.026259225 0.03381998 0.04733403 0.036135655
0001d0 d9 c1 85 3d 67 2e 5d 3c be e1 cf 3a dc 91 64 3c
       0.06531114 0.013499833 0.0015860123 0.013950791
0001e0 a7 12 ed 3c 47 0e 15 3d 7a 52 71 3d 61 90 32 3d
       0.028939558 0.03639057 0.058916546 0.04359472
0001f0 ed 03 d8 3c 21 73 fb 3c be ac 66 3d b0 58 32 3d
       0.02636906 0.030694546 0.056317084 0.04354161

action_model._continuous_distribution.log_sigma f4 [1, 2]
000000 d7 b1 75 bc ce 1d 96 bd
       -0.014996014 -0.073299035

action_model._continuous_distribution.mu.weight f4 [2, 128]
000000 fd 19 b8 3d 22 12 db bb 15 66 09 bd 7a 2c 85 3c
       0.08989332 -0.006685511 -0.03354462 0.01625656
000010 0a 83 af 3d d3 a3 db bc b4 ef c6 bc 41 66 88 bd
       0.085699156 -0.026811516 -0.024284221 -0.066601284
000020 83 da 27 bd 35 e3 9d bd 69 fa cc 3b c0 e4 b9 bb
       -0.040979873 -0.07709352 0.006255437 -0.005673021
000030 af ef 66 3c 2b cc c3 bb e3 50 7e bd fc 0a 74 3d
       0.014095231 -0.0059752665 -0.06208886 0.059580788
000040 d5 60 07 bc af b9 da 3c 14 77 37 3c 42 63 25 bc
       -0.008262833 0.026699869 0.011197824 -0.010094466
000050 9b 9f 5a 3d 00 9f 0a 3c c4 8f 70 3b dc 3f c3 bd
       0.053374868 0.00846076 0.0036706785 -0.095336646
000060 bb 4c 43 bd 94 ef 7d bc 85 86 37 bd ce 26 94 3d
       -0.047680598 -0.015499014 -0.044806022 0.07233964
000070 f2 4a ea bd db d7 5f bd bb c5 81 bd a8 59 8e 3c
       -0.11440076 -0.054649215 -0.06336542 0.017376736
000080 6b e9 4e 3d 8f 6b 05 3d 0d 68 f3 3b 90 d8 27 3d
       0.050515573 0.03257328 0.0074281753 0.040978014
000090 e9 85 1f bd e7 42 26 bb 66 a3 0c 3d 8a 8b 9e 3c
       -0.038946066 -0.0025369467 0.034335516 0.019353647
0000a0 58 64 3f bd 17 28 ee bb 2f 01 57 bd 9b 57 91 3d
       -0.046726555 -0.0072679627 -0.052491363 0.070967875
0000b0 26 11 96 bc 22 c9 b6 bd 72 30 6b 3d ec b5 0c bc
       -0.018318724 -0.08925082 0.057419248 -0.008588295
0000c0 fd 98 a7 bb bd ec 61 bd be 69 8b bd 99 ac bc bc
       -0.005114673 -0.05515741 -0.06807278 -0.02303152
0000d0 b5 e8 15 3d 7b 06 bd 3c 6f 26 d6 3a 5b 77 5c bd
       0.03659888 0.02307438 0.0016338358 -0.053824764
0000e0 16 c4 ba 3c 8c 1e 25 bc 30 bb 8b bb 90 ac 84 3d
       0.02279858 -0.010078084 -0.004264258 0.06478226
0000f0 ac 83 59 bd de ba 3f bc 0b 83 f9 3c 35 2b a5 3c
       -0.053104088 -0.011702267 0.030457994 0.020162204
000100 45 40 7a 3d ea 69 48 3d be 38 61 bb 63 e2 c8 bc
       0.06109645 0.048929133 -0.0034366096 -0.024522012
000110 b5 86 5c 3d 5f 19 8e 3d 22 ef 13 3c 95 03 4b bd
       0.053839404 0.06938433 0.009029182 -0.049563963
000120 99 42 43 3b ca 0c 91 bc 63 a7 b4 bc c1 da 3f 3d
       0.0029794334 -0.017706294 -0.022052472 0.04683948
000130 f4 ae 5f 3b 1a fc 24 3d 7d 5f ce 3c 04 e2 5c 3c
       0.003413138 0.040279485 0.025192017 0.013481621
000140 93 f6 a5 bc a6 07 cf 3a a7 26 db 3b 72 13 d4 ba
       -0.020259177 0.0015795126 0.0066879573 -0.0016180112
000150 57 cb 76 bd dd bb 3f 3c 0a 41 e4 bb 14 6e 1a bb
       -0.060252514 0.011702505 -0.006965761 -0.0023564147
000160 54 9a a0 bd b7 64 7b bb 7e 89 88 3c 93 c7 07 3d
       -0.07841936 -0.0038359591 0.016667124 0.033149313
000170 e0 77 80 3d b9 2f c4 3c 82 c6 31 bd 8b 29 60 3b
       0.06272864 0.023948537 -0.043402202 0.003420445
000180 61 9d ad 3c 1f 1a 96 3a f0 3b 85 bd 7d 31 91 bc
       0.021193208 0.0011451876 -0.06505573 -0.017723793
000190 b0 cc 86 bd 08 b2 ad 3c 29 6c b7 3c 78 31 34 3d
       -0.0658201 0.021203056 0.022390442 0.04399249
0001a0 37 98 91 bc bd e5 fd bc 71 5d 7f 3d 5f ef 47 bd
       -0.017772777 -0.030993337 0.062344972 -0.048812266
0001b0 18 b1 ff 3c 13 69 b6 bc 8a 79 ae bc 48 7e 78 3c
       0.031212375 -0.0222669 -0.021298189 0.015166827
0001c0 bf c9 33 bb f0 84 56 bd 6b 31 57 bd 5e 2e a9 bd
       -0.0027433482 -0.052372873 -0.052537363 -0.08260797
0001d0 70 53 b7 3d c5 7e 17 3d 03 03 92 bc aa bf a6 bc
       0.08951461 0.03698613 -0.017823702 -0.020355064
0001e0 91 8b 80 3d f3 05 1f 3d b3 97 6c 3c cb f8 c0 bd
       0.0627662 0.038824033 0.014440465 -0.094224535
0001f0 e8 55 78 3d a0 5a 85 bc 17 b1 8e bd 78 95 e0 3c
       0.0606288 -0.016278565 -0.06967371 0.027415022
000200 f6 60 10 3d 88 7e 9c bd 76 30 eb b7 26 8a d3 bd
       0.03524872 -0.076413214 -2.803675e-05 -0.10329084
000210 43 7a f5 bb bc 14 33 3c 90 ec 7a 3c 06 cd b1 bc
       -0.0074913814 0.010930236 0.01531519 -0.021704208
000220 53 c5 a7 3b fa ba 80 3b 86 85 e4 3c 0c cb d3 3d
       0.0051199584 0.0039285393 0.0278957 0.103414625
000230 1e 75 70 bd 5c 16 a2 bb a0 49 bb 3c 4f ad 48 3c
       -0.05870544 -0.004946513 0.022862256 0.012248351
000240 6b 5f fb bb 75 bf 2c bd 2b 2d 50 bd d7 3d 73 3d
       -0.007671287 -0.042174775 -0.050824326 0.059385147
000250 ee 7a 93 bd 16 4f 3b 3d 12 ee 80 bd b7 54 70 bd
       -0.07201181 0.04572972 -0.06295408 -0.05867454
000260 d0 77 44 3c fc f3 77 3d 39 8a ae 3c 73 ea 6b 3c
       0.011991456 0.060535416 0.021306144 0.014399159
000270 64 ce b0 3c 17 c5 0b bb 8a 3c 0f 3d 8f 8b 78 bd
       0.02158279 -0.0021327191 0.034969844 -0.06067997
000280 ae 22 17 bd f7 6e 75 bd f1 63 40 3d 72 fe 7d bd
       -0.036898308 -0.059920277 0.04697031 -0.062010236
000290 53 03 76 3d d0 a5 d6 b8 e3 eb 3c 3d 84 c0 3f bd
       0.060061764 -0.000102352 0.046123397 -0.046814457
0002a0 5d 4e 41 bc c8 63 82 bd 11 0e 17 bd 6b ac fb 3c
       -0.011798468 -0.06366688 -0.03687865 0.030721864
0002b0 41 4c 62 3a 01 2e 01 3d 23 8d 91 bc 69 7a 9f bd
       0.00086325785 0.031538013 -0.017767495 -0.0778702
0002c0 b4 18 40 3d 73 b3 2d bd c0 ed 82 bc 8e 68 81 3d
       0.04689856 -0.042407464 -0.015982509 0.0631877
0002d0 fe 38 e5 bb 6d 56 3d 3d 05 6c 4f 3d ea 1d b4 ba
       -0.0069953194 0.046225 0.050640125 -0.0013741825
0002e0 0b 43 8d bd 44 36 ce bd 30 c7 69 3d 80 48 90 bc
       -0.06897553 -0.10068944 0.057074726 -0.017612696
0002f0 0c a2 a5 3c 49 45 95 bd e6 a5 cc 3c e3 ef c2 3d
       0.020218872 -0.07288606 0.02498145 0.09518411
000300 dd 2d 8a bd 08 92 d1 3d 5d b8 f7 bc c9 e8 81 3d
       -0.06747029 0.102329314 -0.030239278 0.06343228
000310 2d de 27 bd e3 74 45 3b 31 b5 0e 3d 4c 76 7f bd
       -0.040983368 0.0030129484 0.034840766 -0.062368676
000320 61 64 de bd 03 b8 8f bd d5 59 b3 bd ed 4a 30 3b
       -0.108589895 -0.07017519 -0.087573685 0.0026900128
000330 76 4b f3 3c 68 e1 5a 3d 1a 9a 93 bd b5 86 50 3d
       0.029699069 0.05343762 -0.07207127 0.050909717
000340 37 3a c4 3d f5 a6 29 bd fd 66 53 3d 50 7f 7f 3d
       0.09581416 -0.04141899 0.05161189 0.062377274
000350 d4 2f 2c 3c 0f ba 8b bd d7 dc cf bd 02 51 c8 bd
       0.01050945 -0.06822597 -0.10149544 -0.09781076
000360 00 94 27 bd 26 85 be bd 90 bc 55 bd e4 22 bd 3d
       -0.04091263 -0.0930274 -0.05218178 0.092351705
000370 cb 3e 18 bd 45 fd ae 3b d4 6f 8e bc 6e d0 f3 bc
       -0.03716926 0.0053402507 -0.017387308 -0.029762473
000380 55 a1 a0 bd d7 8d 18 bd dd 7e bb 3c d7 5f 8a 3d
       -0.07843272 -0.037244644 0.022887642 0.06756561
000390 09 d8 0e 3d 1c be 81 bd 17 4c 7d 3d ec ce 21 3c
       0.034873996 -0.063350886 0.061840143 0.009875994
0003a0 c0 b2 ea bb fc 25 61 3d 91 5e 5d 3d 13 89 74 bd
       -0.007162422 0.054967865 0.054045264 -0.059701037
0003b0 6e 61 7c bc fe 9d dc bb 9c 41 96 bd b4 b9 3d 3d
       -0.015404088 -0.0067327013 -0.07336733 0.04631968
0003c0 d4 ae 29 bd e8 b5 9a 3c f0 b8 71 bd 15 8f 49 3b
       -0.041426495 0.018885568 -0.05901426 0.003075545
0003d0 9e 7b af 3c 6f 93 30 3c 36 d4 fe bb 51 07 3d 3d
       0.02142125 0.010777338 -0.0077767624 0.046149556
0003e0 82 68 c5 bc 94 a1 8a bd 92 ca c6 bd 33 c7 9b bc
       -0.024097685 -0.067691 -0.09706606 -0.019015884
0003f0 fa 47 9c bc 8f 8d 44 3d d9 70 17 3d 45 4a c6 3d
       -0.01907729 0.047986563 0.036972854 0.096821345

action_model._continuous_distribution.mu.bias f4 [2]
000000 d7 f6 1d 3b c7 cd da 3b
       0.0024103427 0.0066773626
